Downloading data from https://storage.googleapis.com/tensorflow/tf-keras-datasets/mnist.npz
11490434/11490434 [==============================] - 0s 0us/step
Model: "sequential"
_________________________________________________________________
 Layer (type)                Output Shape              Param #
=================================================================
 conv2d (Conv2D)             (None, 24, 24, 5)         130
 max_pooling2d (MaxPooling2D  (None, 11, 11, 5)        0
 )
 conv2d_1 (Conv2D)           (None, 9, 9, 3)           138
 flatten (Flatten)           (None, 243)               0
 dropout (Dropout)           (None, 243)               0
 dense (Dense)               (None, 32)                7808
 dropout_1 (Dropout)         (None, 32)                0
 dense_1 (Dense)             (None, 10)                330
=================================================================
Total params: 8,406
Trainable params: 8,406
Non-trainable params: 0
_________________________________________________________________
Epoch 1/5
































600/600 [==============================] - ETA: 0s - loss: 2.9061 - accuracy: 0.2961
WARNING:absl:Found untraced functions such as _jit_compiled_convolution_op, _jit_compiled_convolution_op, _update_step_xla while saving (showing 3 of 3). These functions will not be directly callable after loading.
…
