Downloading data from https://storage.googleapis.com/tensorflow/tf-keras-datasets/mnist.npz
11490434/11490434 [==============================] - 0s 0us/step
Model: "sequential"
_________________________________________________________________
 Layer (type)                Output Shape              Param #
=================================================================
 conv2d (Conv2D)             (None, 24, 24, 5)         130
 max_pooling2d (MaxPooling2D  (None, 11, 11, 5)        0
 )
 flatten (Flatten)           (None, 605)               0
 dense (Dense)               (None, 32)                19392
 dropout (Dropout)           (None, 32)                0
 dense_1 (Dense)             (None, 10)                330
=================================================================
Total params: 19,852
Trainable params: 19,852
Non-trainable params: 0
_________________________________________________________________
Epoch 1/5



























600/600 [==============================] - ETA: 0s - loss: 1.9840 - accuracy: 0.5656
WARNING:absl:Found untraced functions such as _jit_compiled_convolution_op, _update_step_xla while saving (showing 2 of 2). These functions will not be directly callable after loading.
…
