Model: "sequential"
_________________________________________________________________
 Layer (type)                Output Shape              Param #
=================================================================
 conv2d (Conv2D)             (None, 24, 24, 5)         130
 max_pooling2d (MaxPooling2D  (None, 11, 11, 5)        0
 )
 flatten (Flatten)           (None, 605)               0
 dropout (Dropout)           (None, 605)               0
 dense (Dense)               (None, 10)                6060
=================================================================
Total params: 6,190
Trainable params: 6,190
Non-trainable params: 0
_________________________________________________________________
Epoch 1/5






















200/200 [==============================] - ETA: 0s - loss: 16.7803 - accuracy: 0.6231
WARNING:absl:Found untraced functions such as _jit_compiled_convolution_op, _update_step_xla while saving (showing 2 of 2). These functions will not be directly callable after loading.
