Model: "sequential"
_________________________________________________________________
 Layer (type)                Output Shape              Param #
=================================================================
 conv2d (Conv2D)             (None, 24, 24, 5)         130
 max_pooling2d (MaxPooling2D  (None, 11, 11, 5)        0
 )
 flatten (Flatten)           (None, 605)               0
 dense (Dense)               (None, 32)                19392
 dropout (Dropout)           (None, 32)                0
 dense_1 (Dense)             (None, 10)                330
=================================================================
Total params: 19,852
Trainable params: 19,852
Non-trainable params: 0
_________________________________________________________________
Epoch 1/5
