Model: "sequential"
_________________________________________________________________
 Layer (type)                Output Shape              Param #
=================================================================
 conv2d (Conv2D)             (None, 24, 24, 5)         130
 max_pooling2d (MaxPooling2D  (None, 22, 22, 5)        0
 )
 conv2d_1 (Conv2D)           (None, 20, 20, 3)         138
 flatten (Flatten)           (None, 1200)              0
 dense (Dense)               (None, 32)                38432
 dropout (Dropout)           (None, 32)                0
 dense_1 (Dense)             (None, 10)                330
=================================================================
Total params: 39,030
Trainable params: 39,030
Non-trainable params: 0
_________________________________________________________________
Epoch 1/4










































