Downloading data from https://storage.googleapis.com/tensorflow/tf-keras-datasets/mnist.npz
11490434/11490434 [==============================] - 0s 0us/step
Model: "sequential"
_________________________________________________________________
 Layer (type)                Output Shape              Param #
=================================================================
 conv2d (Conv2D)             (None, 24, 24, 32)        832
 conv2d_1 (Conv2D)           (None, 22, 22, 64)        18496
 max_pooling2d (MaxPooling2D  (None, 10, 10, 64)       0
 )
 flatten (Flatten)           (None, 6400)              0
 dropout (Dropout)           (None, 6400)              0
 dense (Dense)               (None, 64)                409664
 dropout_1 (Dropout)         (None, 64)                0
 dense_1 (Dense)             (None, 10)                650
=================================================================
Total params: 429,642
Trainable params: 429,642
Non-trainable params: 0
_________________________________________________________________
Epoch 1/5







